_________________________________________________________________
Layer (type)                 Output Shape              Param #   
=================================================================
time_distributed_1 (TimeDist (100, 15, 100)            102600    
_________________________________________________________________
cu_dnnlstm_1 (CuDNNLSTM)     (100, 15, 100)            80800     
_________________________________________________________________
activation_1 (Activation)    (100, 15, 100)            0         
_________________________________________________________________
cu_dnnlstm_2 (CuDNNLSTM)     (100, 15, 100)            80800     
_________________________________________________________________
activation_2 (Activation)    (100, 15, 100)            0         
_________________________________________________________________
time_distributed_2 (TimeDist (100, 15, 1025)           103525    
=================================================================
Total params: 367,725
Trainable params: 367,725
Non-trainable params: 0
_________________________________________________________________
trained weight exists!
