_________________________________________________________________
Layer (type)                 Output Shape              Param #   
=================================================================
time_distributed_1 (TimeDist (100, 15, 100)            102600    
_________________________________________________________________
cu_dnnlstm_1 (CuDNNLSTM)     (100, 15, 50)             30400     
_________________________________________________________________
activation_1 (Activation)    (100, 15, 50)             0         
_________________________________________________________________
cu_dnnlstm_2 (CuDNNLSTM)     (100, 15, 100)            60800     
_________________________________________________________________
activation_2 (Activation)    (100, 15, 100)            0         
_________________________________________________________________
time_distributed_2 (TimeDist (100, 15, 1025)           103525    
=================================================================
Total params: 297,325
Trainable params: 297,325
Non-trainable params: 0
_________________________________________________________________
(15, 1025) (15, 1025)
(15, 1025) (15, 1025)
>>>>>>>>>>>>>>>>>>>>>>>>>>>>>>>> training :  1 >>>>>>>>>>>>>>>>>>>>>>>>>>>>>>>>
first part: (voice,voice)
